eduTechBot/data.pth (torch, 22058 bytes, 6 tensors)

l1.weight f4 [8, 366]
0	0x3d250c7b	0.040295105
1	0x3edb49c8	0.42829728
2	0xbd7e976c	-0.062156126
3	0x3f14ccf6	0.58125246
4	0xbf5f31f6	-0.8718561
5	0x3f480104	0.7812655
6	0x39be1db0	0.00036261743
7	0x3f0b6529	0.54451233
8	0xbf2d4e25	-0.67697364
9	0xbf1b6c8b	-0.607125
10	0x3f50950e	0.8147744
11	0x3f02d5b9	0.51107365
12	0x3e160c58	0.14653146
13	0xbf0b24af	-0.5435285
14	0x3edc7d12	0.4306417
15	0xbf0e7f1b	-0.556627
16	0x3a862875	0.0010235446
17	0xbfc771e8	-1.5581636
18	0x3f50205a	0.81299365
19	0xbf2cddbd	-0.67525846
20	0x3e941b88	0.28927255
21	0x3f9e526f	1.2368907
22	0x3f558f30	0.8342161
23	0x3f83cf98	1.0297728
24	0x3ecf8412	0.4053045
25	0xbe4d6342	-0.20057395
26	0x3f2cc22c	0.6748378
27	0x3e1bf2f9	0.15229405
28	0xbe43367a	-0.1906375
29	0x3eed67dd	0.46368304
30	0x3f216259	0.6304069
31	0xbf3ead79	-0.7448345
32	0xbf8eeb2c	-1.1165519
33	0x3ee409e2	0.4453879
34	0xbe97d9b6	-0.29658288
35	0xbf24f931	-0.64442736
36	0x3e9f56dc	0.31120956
37	0x3f432263	0.76224345
38	0xbe1e0f8d	-0.1543562
39	0x3cf71077	0.030159218
40	0x3ec598ce	0.38593143
41	0xbe3a2929	-0.18179764
42	0xbe0d3780	-0.13790703
43	0xbeb5110a	-0.35364562
44	0xbf1c28be	-0.6099967
45	0x3e748d3f	0.23882006
46	0xbebdf292	-0.3709913
47	0x3e8790d3	0.2647768
48	0xbd52a306	-0.051425003
49	0x3f116ff4	0.5681145
50	0x3f5b0cad	0.85566217
51	0x3f4529d8	0.77016973
52	0x3f369907	0.7132725
53	0x3f5c5e65	0.86081535
54	0x3f0309f2	0.5118705
55	0x3f2467e1	0.64221007
56	0x3d531e87	0.051542785
57	0xbe733445	-0.23750408
58	0x3f1efd8f	0.6210565
59	0xbe8c292b	-0.2737516
60	0x3e5dd8c6	0.21664724
61	0x3f307a7c	0.68936896
62	0xbf366889	-0.7125326
63	0x3daf6c13	0.085655354
64	0x3e5f4850	0.21804929
65	0xbf50ec4a	-0.8161055
66	0xbf2865b4	-0.65780187
67	0x3d969125	0.07351903
68	0x3ec978a2	0.39349848
69	0xbe54a0a4	-0.20764405
70	0x3ef0f27f	0.4706001
71	0x3f0de51d	0.55427724
72	0xbf9c75dc	-1.2223468
73	0xbe8ac08c	-0.27100027
74	0xbee0fe99	-0.43944243
75	0x3f1613ba	0.5862385
76	0x3eab3792	0.33440834
77	0x3f4ab497	0.7918181
78	0x3ef283b6	0.47366112
79	0x3efc1061	0.49231246
80	0xbeb7e988	-0.35920358
81	0x3ee62f01	0.44957736
82	0xbf038d47	-0.5138745
83	0xbf11ad5b	-0.56905144
84	0x3e825607	0.2545626
85	0x3f89b65b	1.0758775
86	0x3fdd494b	1.7287992
87	0x3ee0af1f	0.43883607
88	0x3d02792d	0.031853843
89	0x3f94dd0f	1.1629962
90	0x3f0b88e3	0.5450575
91	0xbe64675b	-0.22305052
92	0x3f296e5d	0.66184026
93	0x3e973ab6	0.2953698
94	0x3f5f6b95	0.8727353
95	0xbeb5a6ce	-0.35478824
96	0xbd0c504b	-0.03425626
97	0xbe4f4c59	-0.20243968
98	0xbbd5c17b	-0.006523309
99	0xbe1fee0d	-0.15618153
100	0xbf4aa542	-0.79158413
101	0x3f3efcd0	0.7460451
102	0x3e1e269e	0.15444419
103	0x3f118a09	0.5685125
104	0x3f24e71a	0.64415133
105	0x3f5c0475	0.859443
106	0xbf7efa19	-0.9960037
107	0x3dbadbe8	0.09123975
108	0xbef77768	-0.48333287
109	0x3eff652a	0.4988187
110	0x3edb9604	0.4288789
111	0x3f472db0	0.7780409
112	0x3e22b729	0.15890183
113	0x3ecb3f6c	0.39696825
114	0x3e9a631d	0.30153742
115	0x3f9de672	1.2335951
116	0xbe9b0709	-0.30278805
117	0xbe79fe8b	-0.24413507
118	0xbd89cd99	-0.06728668
119	0x3e05e186	0.13074312
120	0xbec5bc34	-0.3862015
121	0x3f0e5928	0.5560479
122	0x3f1eb43a	0.61993754
123	0x3f282948	0.6568799
124	0x3e8e03f5	0.27737394
125	0x3e040d6c	0.12895745
126	0xbdff3a92	-0.12462343
127	0x3eb614b7	0.3556268
128	0xbf7132aa	-0.9421793
129	0x3d9a524c	0.07535228
130	0x3f4daed8	0.80344915
131	0x3fc7bfaf	1.5605372
132	0x3f98aa61	1.1926996
133	0x3f0e459c	0.55574965
134	0xbf0ad9f8	-0.54238844
135	0x3e7bc291	0.2458594
136	0xbd0a4661	-0.033758525
137	0x3e4bc1b5	0.19898112
138	0x3f01fcfd	0.50776654
139	0x3f8bf695	1.0934626
140	0x3e504934	0.20340425
141	0x3f8cf455	1.1012064
142	0x3f92595a	1.1433518
143	0x3f48d0b4	0.78443456
144	0x3ec4f949	0.3847144
145	0x3d676962	0.056496985
146	0x3edfff27	0.43749353
147	0x3eb7101a	0.35754472
148	0x3ec79f5e	0.38988775
149	0xbf0eecde	-0.5583018
150	0x3f90fe43	1.1327595
151	0x3ee25fe5	0.44213787
152	0x3eec3d45	0.46140495
153	0x3f625ef9	0.88426167
154	0x3e874a09	0.26423672
155	0xbeb97601	-0.36222842
156	0xbf5af88c	-0.855355
157	0xbe5dec0a	-0.21672073
158	0xbe3c68bb	-0.18399327
159	0xbd08b4a7	-0.03337541
160	0x3ed7499f	0.42048356
161	0xbea90ccd	-0.3301758
162	0x3e864e6f	0.26231715
163	0x3d8478c8	0.0646835
164	0x3f73f72e	0.9529904
165	0x3ecdaa60	0.40169048
166	0x3e68f1bd	0.22748466
167	0xbf89fae2	-1.0779688
168	0xbefad68a	-0.48991805
169	0xbe15a87e	-0.14615056
170	0xbe652163	-0.22376017
171	0x3e330e29	0.1748587
172	0xbb9a6ebf	-0.004712909
173	0xbe8a9e46	-0.27073878
174	0xbf10ccbb	-0.56562394
175	0x3e1afb82	0.15135005
176	0xbe3333e8	-0.1750027
177	0x3f0c9fe5	0.5493148
178	0xbcddfc14	-0.02709774
179	0x3f36dc5a	0.7142998
180	0x3ee2e067	0.4431183
181	0xbe00e0cf	-0.12585758
182	0x3bea2a10	0.0071461275
183	0xbdbbbf45	-0.09167341
184	0xbebc4c0b	-0.36776766
185	0xbf97031b	-1.1797823
186	0x3e9998b3	0.29999313
187	0x3f11daf4	0.5697472
188	0xbf43e06c	-0.76514316
189	0xbec6afc4	-0.38805974
190	0xbeeffc37	-0.46872112
191	0x3e43f62b	0.19136874
192	0x3e911ae5	0.2834083
193	0xbf20d246	-0.6282085
194	0x3f472cc8	0.77802706
195	0x3f892df8	1.0717154
196	0x3f49ca91	0.78824717
197	0x3e6f42b4	0.23365289
198	0x3f16f375	0.58965236
199	0x3effd01e	0.49963468
200	0x3f0c4ccf	0.548047
201	0x3f9c2008	1.2197275
202	0x3f83038a	1.0235455
203	0xbc59a809	-0.013284692
204	0x3f922e2b	1.1420339
205	0xbe82f86d	-0.2558016
206	0x3e566feb	0.20941131
207	0xbf54f3aa	-0.831843
208	0xbe1ad6cd	-0.15121002
209	0xbd643afc	-0.055720314
210	0xbf29acf8	-0.66279554
211	0x3efe3e2b	0.49656805
212	0x3f58511b	0.8449876
213	0xbf7a4b50	-0.9777117
214	0x3d91bd18	0.07116145
215	0x3eb0f5d6	0.34562558
216	0x3ed179d5	0.40913263
217	0x3f054c27	0.52069324
218	0xbe6ff6f8	-0.23434055
219	0xbf63c426	-0.88971174
220	0x3ee92be9	0.45541313
221	0x3f6968f6	0.9117578
222	0xbf034a0d	-0.5128487
223	0x3f0e8376	0.55669343
224	0xbf91013c	-1.1328502
225	0x3f00bf23	0.5029165
226	0x3ef947da	0.4868763
227	0x3ef29fbb	0.4738749
228	0x3bb86d77	0.0056282836
229	0x3e514440	0.20436192
230	0xbea3a2f3	-0.31960258
231	0x3f645ff5	0.8920892
232	0x3f686d4c	0.90791774
233	0x3f733514	0.95002866
234	0xbe9d80c6	-0.3076231
235	0x3ea0fc89	0.3144267
236	0xbe91ec27	-0.28500482
237	0xbdb85dac	-0.090022415
238	0xbe893d65	-0.26804653
239	0x3e0c3427	0.1369177
240	0x3f13f14b	0.5779006
241	0xbe5d2dc1	-0.21599485
242	0x3e21cc1b	0.15800516
243	0x3f191754	0.5980122
244	0xbf658d62	-0.8966886
245	0xbe306670	-0.17226577
246	0xbf32871a	-0.697374
247	0x3fa05946	1.2527244
248	0x3dbd47b3	0.09242191
249	0x3e15cfc7	0.14630042
250	0xbd125863	-0.035728823
251	0x3eff4d46	0.49863642
252	0x3dbe0624	0.09278515
253	0x3ecab3cb	0.39590296
254	0x3f353a8b	0.70792454
255	0xbced0029	-0.02893074

l1.bias f4 [8]
0	0x3f73fef4	0.953109
1	0x3efdde08	0.4958346
2	0x3f5f242f	0.87164587
3	0x3ed514f1	0.4161754
4	0x3eec40a7	0.46143076
5	0x3f602bf0	0.87567043
6	0x3f28d1cd	0.6594513
7	0x3f95796e	1.1677682

l2.weight f4 [8, 8]
0	0xbfff3523	-1.9938091
1	0xbf2c08be	-0.6720084
2	0x3e966d28	0.29380155
3	0x3f4dd2c6	0.8039974
4	0x3fe3e108	1.7803049
5	0x401238f5	2.2847264
6	0x3fd99385	1.6998144
7	0x3fb033a1	1.3765756
8	0x3f64bbb6	0.89348924
9	0xbf69f119	-0.9138351
10	0x3fb12826	1.3840377
11	0xbe90ab6b	-0.28255782
12	0x3faace8c	1.3344283
13	0xc0046484	-2.068635
14	0x3fe62135	1.7978884
15	0x40028734	2.0395021
16	0x3ebf8f70	0.37414122
17	0x3fd4d0e7	1.6626252
18	0x3d9848de	0.07435773
19	0xbe7f2d67	-0.24919663
20	0xbf8b7eca	-1.0898068
21	0x3f6ba662	0.92050755
22	0x404e6752	3.2250562
23	0xbd2e83a3	-0.042606007
24	0xbdcd70a2	-0.10031249
25	0xbdc2ae4f	-0.09505903
26	0xbeb5886f	-0.35455653
27	0xbdded984	-0.108813316
28	0x3e80af7e	0.2513389
29	0xbe88d257	-0.26722977
30	0xbdde832b	-0.10864862
31	0xbe5e0853	-0.21682863
32	0x3f13be4d	0.5771225
33	0xbf7e2a90	-0.99283695
34	0x40249d0d	2.5720856
35	0xbfac915a	-1.3481858
36	0xc03ecf91	-2.9814188
37	0x3fc3f61b	1.530948
38	0x3fb49b2c	1.4109855
39	0x401570b1	2.3350031
40	0xbf919ef2	-1.1376631
41	0x3f9339f8	1.1502066
42	0x400e54df	2.2239301
43	0x4016abf6	2.3542457
44	0x3e7b4363	0.24537425
45	0x3f8cee55	1.1010233
46	0xbe408652	-0.18801239
47	0xbf1b3ede	-0.606428
48	0x400e048a	2.219027
49	0x3ffa5e6b	1.9560064
50	0x3e4f750d	0.20259495
51	0xbf84d8cc	-1.0378661
52	0x3f9332f8	1.149993
53	0x3fc5f0ab	1.5464071
54	0x40406b8a	3.0065637
55	0xbff04181	-1.876999
56	0x3fd2e048	1.6474695
57	0xbe919e94	-0.28441298
58	0xbe141139	-0.14459695
59	0x3f9bb164	1.216351
60	0x3f1dd625	0.61654884
61	0x40707f18	3.7577572
62	0xbfc369ce	-1.5266664
63	0x4036cb62	2.8561635

l2.bias f4 [8]
0	0xbf2fbf0f	-0.6865091
1	0x3e90f50e	0.28311962
2	0x3e17cb67	0.14823686
3	0xbeace895	-0.33771196
4	0x3f628d31	0.8849669
5	0x3e2cf816	0.16891512
6	0x3ee9df1f	0.4567804
7	0x3ea9f4ff	0.3319473

l3.weight f4 [42, 8]
0	0x3e9c7f5e	0.30565923
1	0xbece8614	-0.40336668
2	0xc00d4fe7	-2.2080019
3	0x3e841799	0.25799254
4	0xbf1854d8	-0.5950446
5	0xbea64e0b	-0.32481417
6	0xbfb5ecd4	-1.4212899
7	0x3ee3ae49	0.44468907
8	0xbfff5850	-1.9948826
9	0x3ea574a3	0.3231555
10	0xbe3d1cd4	-0.18468028
11	0x3ce84146	0.028351437
12	0x3f42f3b5	0.7615312
13	0xbf809ade	-1.0047262
14	0xbf1d3c8d	-0.6142052
15	0xbf89fe55	-1.0780741
16	0x3f2dad3d	0.67842466
17	0xbf8769c5	-1.0579153
18	0xbf43a1f7	-0.76419014
19	0x3e3da68e	0.18520567
20	0xbdee5148	-0.11636597
21	0x3e95fc2f	0.29293963
22	0xc032aeb0	-2.791912
23	0x3e1d6be1	0.15373184
24	0xbfc28eed	-1.5199867
25	0xbf343908	-0.7039952
26	0x3fb27cac	1.3944297
27	0x3de6b13f	0.11264276
28	0xc013ac50	-2.3073921
29	0xbfd0069f	-1.6252021
30	0x3f84b5ee	1.036802
31	0xbffdd2b4	-1.9829926
32	0xc0426c37	-3.037855
33	0xbe43af73	-0.19109897
34	0xbf13a2d3	-0.57670325
35	0xbdcefa71	-0.10106362
36	0xc0239fe7	-2.5566347
37	0xbf0323ff	-0.512268
38	0x3ebccbbf	0.36874196
39	0x3f0c3d2e	0.5478085
40	0xbe8f818a	-0.28028518
41	0xbf519636	-0.8186983
42	0xbf7383fb	-0.9512326
43	0xbe82ed78	-0.255718
44	0x3f03b4d6	0.5144781
45	0xbfb5dc19	-1.4207793
46	0xbf0d2671	-0.5513678
47	0x3d72a4b3	0.0592391
48	0xbe07c031	-0.13256909
49	0x3e96ae1b	0.29429707
50	0xbec6515d	-0.3873395
51	0x3e793c86	0.24339494
52	0x3ece72fc	0.403221
53	0xbfbb1a67	-1.4617432
54	0xbf976d6b	-1.1830267
55	0xbf5df1cc	-0.8669708
56	0xbfd0bd52	-1.6307776
57	0xbf1ac472	-0.60456
58	0x3eedaec3	0.46422395
59	0xbe9459e2	-0.28974825
60	0xbdda42c4	-0.10657266
61	0xc067ec9f	-3.6238172
62	0x3f03c161	0.5146695
63	0xbe3e84d8	-0.18605363
64	0xbea26ab6	-0.3172204
65	0xc00273a5	-2.0383084
66	0x3e6f9b71	0.2339914
67	0x3e527616	0.20552859
68	0x3efad398	0.48989558
69	0xc03f73de	-2.991447
70	0xbc6a0560	-0.014283508
71	0x3e81e694	0.2537123
72	0xc01b0813	-2.4223678
73	0xc055f84d	-3.34328
74	0x3e863249	0.2621024
75	0xbe90e1bc	-0.28297222
76	0x3e02e491	0.12782504
77	0xbe53a1e8	-0.20667231
78	0x3f153a9e	0.5829257
79	0xbe95084b	-0.2910789
80	0xbe20d1c0	-0.15705013
81	0xc04502b0	-3.078289
82	0x3ea76aeb	0.3269876
83	0xbeb4a16a	-0.352794
84	0xbff9de8f	-1.9521044
85	0xbfb9fc76	-1.453017
86	0x3f10abfc	0.5651243
87	0x3f1faf31	0.62376696
88	0x3ecefab6	0.40425652
89	0xbf294842	-0.6612588
90	0xbd25a88d	-0.040443946
91	0x3d035008	0.032058746
92	0xc028d258	-2.6378384
93	0x3dda8ce3	0.10671403
94	0x3eb695c9	0.35661152
95	0xc024bc27	-2.573984
96	0xbfdee953	-1.7414955
97	0xbf71cde9	-0.9445482
98	0xbe80677c	-0.25078952
99	0xbe3a15f3	-0.18172435
100	0x3dff9f3d	0.12481544
101	0x3ef81c86	0.48459262
102	0xbf4db09a	-0.803476
103	0xbeb67745	-0.3563787
104	0xbfb652d6	-1.424403
105	0xbf3f79a0	-0.7479496
106	0x3e9d5c92	0.30734688
107	0x3dd0e267	0.10199433
108	0xbdd5f7f0	-0.10447681
109	0xbf3eaf50	-0.74486256
110	0x3e43fce5	0.1913944
111	0xbf6b64ff	-0.9195098
112	0xc01a1c8b	-2.4079921
113	0xbf5a1856	-0.85193384
114	0x3eaa0249	0.33204868
115	0xbd87ceac	-0.066312164
116	0xbd164d4c	-0.03669481
117	0x3e7c111e	0.24615905
118	0x3ecca307	0.3996813
119	0xc01b5b50	-2.4274483
120	0xbf229171	-0.63503176
121	0xc014fcf8	-2.32794
122	0x3e10d1f8	0.14142597
123	0xbe91e520	-0.2849512
124	0x3e6333a3	0.22187667
125	0xbf1f81dc	-0.62307525
126	0xbec8bb82	-0.39205557
127	0x3e1ac175	0.1511286
128	0xbfb8f802	-1.4450686
129	0xc047b78d	-3.120578
130	0x3ec34f54	0.3814646
131	0x3d90992c	0.07060465
132	0xc027a5f2	-2.6195035
133	0x3f1f48d0	0.6222048
134	0x3dcb464c	0.099255174
135	0x3efc04f3	0.49222526
136	0xbe20a5d6	-0.15688261
137	0xbfe650e5	-1.7993437
138	0xbf679558	-0.90462255
139	0x3ceb59d0	0.02872935
140	0xbf63be88	-0.889626
141	0x3e403294	0.18769294
142	0xbf115568	-0.56770945
143	0x3ec6d623	0.38835248
144	0xbe6b1d1e	-0.22960326
145	0x3d9f35b9	0.07773919
146	0xbccedd98	-0.025252149
147	0x3e8abd95	0.27097765
148	0x3f07cb53	0.53044623
149	0xbd171232	-0.036882587
150	0xc04a47ef	-3.1606405
151	0xbedbe9a7	-0.429517
152	0xbc467b37	-0.012114338
153	0x3c93880f	0.018009214
154	0xc06a6e2d	-3.6629746
155	0xbd24fdf8	-0.040281266
156	0x3f2e8376	0.68169343
157	0xc091419d	-4.5392594
158	0xbf081fe9	-0.5317369
159	0x3f598976	0.84975374
160	0xc08a6712	-4.325082
161	0xbeb64275	-0.35597578
162	0xbea286e7	-0.31743547
163	0x3e5192d7	0.20466171
164	0x3f5d0711	0.8633891
165	0xc00ca749	-2.1977103
166	0xbf702e30	-0.93820477
167	0x3f9079b8	1.1287146
168	0xbface83d	-1.3508373
169	0xbeb776c1	-0.3583279
170	0xbfcec547	-1.6153954
171	0x3d8b18fe	0.06791876
172	0xc05d1fbd	-3.4550622
173	0x3ecb9553	0.39762363
174	0x3edc4fa3	0.43029508
175	0x3ca0aa7d	0.019612545
176	0x3f32a8f5	0.6978906
177	0xc04704bd	-3.1096642
178	0xc01ad9d6	-2.4195457
179	0x3eab7b47	0.3349249
180	0xc0159307	-2.3370988
181	0x3f21dc4c	0.6322677
182	0xbf073281	-0.5281144
183	0x3f2ce3f5	0.67535335
184	0xbd85f38b	-0.06540593
185	0xbf7a744d	-0.9783371
186	0x3f5cbe86	0.86228216
187	0xbeb4b43b	-0.35293755
188	0xc0392a60	-2.8932114
189	0xbef9ac2c	-0.4876417
190	0xbe2791ae	-0.16364166
191	0xbf17aa4a	-0.59244215
192	0x3e97b992	0.29633766
193	0xc02cd223	-2.7003257
194	0x3eb9fdff	0.36326596
195	0xbe85cf3e	-0.26134676
196	0x3ea226a3	0.31670102
197	0x3e9f3d4f	0.31101462
198	0xbf64ab0e	-0.8932351
199	0xbf814d64	-1.0101743
200	0xbf0fbe3d	-0.56149656
201	0xc0005537	-2.005201
202	0x3f2b887c	0.67005134
203	0x3ddf4b2c	0.1090301
204	0xbf5d6486	-0.8648151
205	0x3f879c84	1.059464
206	0xbe0bae86	-0.13640794
207	0xc0121455	-2.282491
208	0xbee4fa36	-0.44722146
209	0xbffd6280	-1.9795685
210	0x3efba28e	0.49147457
211	0x3eaaf4db	0.33389935
212	0x3f0e6115	0.55616885
213	0xbea076bb	-0.31340584
214	0x3e317ac8	0.17331994
215	0xc008bbb0	-2.1364555
216	0xbeeb8c32	-0.46005398
217	0xbfa5c3d4	-1.2950387
218	0xbf61594e	-0.88026893
219	0x3e89dee7	0.26927873
220	0x3f3075de	0.6892985
221	0xbe3b0420	-0.18263292
222	0xc00ce8e0	-2.2017136
223	0x3f061f2b	0.5239131
224	0xc0167d76	-2.3514075
225	0xbe01e634	-0.12685472
226	0x3eedf1cb	0.46473536
227	0xbe757da4	-0.2397371
228	0x3f18b9c4	0.59658456
229	0xbfda9fc7	-1.708001
230	0x3f11032b	0.5664546
231	0xc0290dca	-2.6414666
232	0x3f2f247f	0.68415064
233	0xbff076b2	-1.8786223
234	0xbe8bada8	-0.27280927
235	0x3dfd4294	0.123662144
236	0xbf061c96	-0.5238737
237	0xbf5e08d1	-0.867322
238	0xbf8c87aa	-1.0978901
239	0x3ee90fd9	0.45519903
240	0xbed7891e	-0.420968
241	0xbce7c06b	-0.028289994
242	0xbe9b436b	-0.30324873
243	0x3e1d30d6	0.1535066
244	0x3e8c3216	0.27381963
245	0xbec3d10e	-0.38245434
246	0xbe07ed7e	-0.1327419
247	0xc01d50d1	-2.4580576
248	0x3eecf543	0.4628087
249	0x3df85469	0.12125475
250	0xbf27fce0	-0.6562023
251	0xbe91a8ca	-0.28449088
252	0xbf9f84be	-1.2462385
253	0xbee85cdc	-0.45383346
254	0xbf2cebc5	-0.67547256
255	0xbf79f25d	-0.9763544

l3.bias f4 [42]
0	0x3d5147f8	0.051094025
1	0xbe5e9be8	-0.21739161
2	0xbed545ba	-0.4165476
3	0x3f00dee3	0.503401
4	0x3f1ff495	0.6248258
5	0xbf5a5b2d	-0.85295373
6	0xbf524add	-0.8214548
7	0xbe4626f3	-0.19350795
8	0xbf3a36af	-0.7273969
9	0x3e2730d3	0.16327219
10	0xbdee609e	-0.11639522
11	0xbda5374a	-0.08067186
12	0xbf07257d	-0.5279158
13	0xbf95110c	-1.1645827
14	0xbe60be2a	-0.21947542
15	0xbe0af10f	-0.13568519
16	0xbe12d265	-0.14338072
17	0xbe9fddde	-0.3122396
18	0x3e4022c3	0.1876326
19	0x3f0a5184	0.5403063
20	0x3ec33a5d	0.38130465
21	0x3ee58430	0.44827414
22	0x3edbf30c	0.42958868
23	0xbea0bb1a	-0.31392747
24	0xbf48a0af	-0.78370184
25	0x3d94348a	0.072365835
26	0x3dda6fc6	0.1066585
27	0xbd6b54c4	-0.057453886
28	0x3e93e60e	0.28886455
29	0xbeb6cc28	-0.35702634
30	0xbe5b45fe	-0.21413419
31	0xbe07a332	-0.13245848
32	0xbe7a8e90	-0.24468446
33	0x3ec361b8	0.3816049
34	0x3ce4608f	0.027878074
35	0xbe0a4718	-0.13503683
36	0xbe296574	-0.16542608
37	0xbe89b569	-0.26896217
38	0x3f06702b	0.52514905
39	0x3d19155a	0.037373878
40	0xbe549102	-0.20758441
41	0x3f044b62	0.51677525
